…
"sigmoid\"))\n\nmodel.layers[-6].trainable = False\n\nmodel.summary()\nmodel.compile(loss='mean_squared_error', optimizer='adam', metrics=['accuracy'])\n","metadata":{"colab":{"base_uri":"https://localhost:8080/"},"id":"zyMy-s7xfERT","outputId":"1b90f126-08d5-4341-e945-6ec068a07bf3"},"output":{"0":{"name":"stdout","output_type":"stream","text":"Model: \"sequential\"\n_________________________________________________________________\n Layer (type)                Output Shape              Param #   \n=================================================================\n inception_v3 (Functional)   (None, 5, 5, 2048)        21802784  \n                                                                 \n flatten (Flatten)           (None, 51200)             0         \n                                                                 \n dense (Dense)               (None, 128)               6553728   \n                                                                 \n dense_1 (Dense)             (None, 128)               16512     \n                                                                 \n dense_2 (Dense)             (None, 64)                8256      \n                                                                 \n dense_3 (Dense)             (None, 4)                 260       \n                                                                 \n=================================================================\nTotal params: 28,381,540\nTrainable params: 6,578,756\nNon-trainable params: 21,802,784\n_________________________________________________________________\n"}},"pos":16,"tags":{},"type":"cell"}
{"cell_type":"code","exec_count":13,"id":"d5a051","input":"trai
…
