…
"sigmoid\"))\n\nmodel.layers[-6].trainable = False\n\nmodel.summary()\nmodel.compile(loss='mean_squared_error', optimizer='adam', metrics=['accuracy'])\n","metadata":{"colab":{"base_uri":"https://localhost:8080/"},"id":"4Frg6Avq3rL3","outputId":"1af290c4-9cca-4e92-b8a1-c934025fd318"},"output":{"0":{"name":"stdout","output_type":"stream","text":"Model: \"sequential\"\n_________________________________________________________________\n Layer (type)                Output Shape              Param #   \n=================================================================\n vgg16 (Functional)          (None, 7, 7, 512)         14714688  \n                                                                 \n flatten (Flatten)           (None, 25088)             0         \n                                                                 \n dense (Dense)               (None, 128)               3211392   \n                                                                 \n dense_1 (Dense)             (None, 128)               16512     \n                                                                 \n dense_2 (Dense)             (None, 64)                8256      \n                                                                 \n dense_3 (Dense)             (None, 4)                 260       \n                                                                 \n=================================================================\nTotal params: 17,951,108\nTrainable params: 3,236,420\nNon-trainable params: 14,714,688\n_________________________________________________________________\n"}},"pos":16,"type":"cell"}
{"cell_type":"code","exec_count":12,"id":"51b153","input":"train = model.
…
